models/capg_3dcnn_dba_v004_2023_01_27_16_38_11/capg_dba_v004_PRE_MODEL.pt (torch, 418492 bytes, 26 tensors)

weight f4 [16, 1, 3, 3, 3]
000000 51 f9 00 be 25 1b 65 be 43 a4 8f be 30 0f 7b be
       -0.12595107 -0.22373636 -0.2805501 -0.24517512
000010 37 41 c2 3d e3 c2 95 bd 11 87 2d 3e ea a9 70 3d
       0.09485095 -0.07312562 0.16946055 0.058755793
000020 48 93 35 3e 1e c8 3f 3d 42 32 a0 3c b4 e5 d2 3d
       0.17731965 0.046821706 0.019555215 0.10297719
000030 ea 81 e2 3b 24 f6 77 3d 1d 28 b8 bd 8b e1 e5 bd
       0.0069124596 0.060537472 -0.08992026 -0.112246595
000040 88 e8 38 be 02 ce de bd b1 bd 49 3c 59 88 2d bc
       -0.18057454 -0.108791366 0.012313292 -0.01059159
000050 00 d4 44 3d 27 98 4e 3e a2 10 08 bd dc 9c 27 bd
       0.04805374 0.20175229 -0.033218987 -0.040921077
000060 87 72 78 be 44 52 19 be 2d 4a 81 be 82 ff 28 3c
       -0.24262439 -0.14972788 -0.25251904 0.010314824
000070 7e d4 49 3d f7 ee 11 3e ad 22 80 be 2d 92 90 be
       0.049274914 0.14251314 -0.25026456 -0.28236523
000080 5a 13 53 be 34 b8 5a 3e 73 d5 57 bc 71 2a 97 3d
       -0.20612851 0.2135933 -0.013173449 0.07381142
000090 fe 57 36 bd 34 e7 0d be be c9 91 3e 42 02 77 be
       -0.04451751 -0.13857728 0.2847423 -0.24121955
0000a0 e8 39 15 bd a7 36 b1 bd 77 a2 cb 3d 03 74 9b bd
       -0.036432177 -0.08653002 0.09943097 -0.07590487
0000b0 39 6c 60 3c a2 75 9b be 98 1c fd 3d 91 32 97 3e
       0.013697677 -0.30363184 0.123589694 0.29530767
0000c0 32 f1 e4 bb 1e 45 89 be 9c aa b3 be 7e 5a 15 3e
       -0.0069867605 -0.26810545 -0.35091102 0.14585301
0000d0 95 aa fd 3c 92 ca 6f 3d b5 f7 11 3e 55 e6 c8 3d
       0.030965129 0.058542795 0.14254649 0.09809557
0000e0 5c ab bb 3d 95 24 e6 3d 44 51 c2 bc 09 b1 40 be
       0.091635436 0.11237446 -0.023720391 -0.18817534
0000f0 9e c3 09 3d 52 81 05 3e 69 79 9e bd 9c 17 ad bc
       0.03363382 0.13037613 -0.07738001 -0.021129422
000100 f9 ba 64 bd e5 e1 30 be 9a f6 8d be 27 b5 40 be
       -0.055842374 -0.17273672 -0.27727205 -0.18819104
000110 39 06 5f be e8 4a 06 bf 7a 88 a0 be 22 07 90 bc
       -0.21779718 -0.5245805 -0.31354123 -0.017581526
000120 ef 91 82 bd 53 f7 33 bd 50 ac e7 ba 93 ce 34 be
       -0.06375491 -0.04393704 -0.0017675254 -0.17656927
000130 a9 76 cd bd cc 8d 3b be fa 93 0e 3e 6a ff 51 3e
       -0.10032398 -0.1831581 0.13923636 0.20507589
000140 e1 37 8f 3e d5 98 08 bf e4 dd 9d be 78 07 25 bf
       0.2797232 -0.53358203 -0.30833352 -0.6446452
000150 28 75 99 3d c2 c0 1d be b2 99 2b 3d 55 75 7e be
       0.07493049 -0.15405563 0.041894622 -0.24849446
000160 99 71 95 be 84 08 67 be d4 53 29 be 9b 36 85 bb
       -0.2918823 -0.22561842 -0.16535884 -0.0040653474
000170 ca fe 39 be 0e a4 01 3e f2 9d 92 3d c2 e5 8a 3d
       -0.181636 0.12660238 0.07159032 0.06782104
000180 88 c3 b9 3c 09 d7 92 bd d6 a8 8c bd f6 ce bf be
       0.022676244 -0.07169921 -0.068681404 -0.37462586
000190 53 e8 d3 bd f6 14 b8 be a4 14 a7 3d ab 26 66 bd
       -0.10347047 -0.35953492 0.08158234 -0.05618922
0001a0 a5 42 24 3e fd 1d a4 3d 89 71 ce 3d 98 f3 4a bc
       0.16041048 0.08013532 0.10080249 -0.012387179
0001b0 86 fc 17 be 48 fb 07 bd e7 15 48 3d 7b 58 e7 3b
       -0.14842424 -0.033198625 0.048849013 0.0070601082
0001c0 d7 ab 81 3c a1 c7 08 be dc ef 11 be 7a 60 c9 bd
       0.01582901 -0.13357402 -0.14251655 -0.098328546
0001d0 31 20 4a be c9 ce 68 be 00 9f 65 be e5 d5 26 3b
       -0.19738843 -0.22735132 -0.22423935 0.002545708
0001e0 7c 65 9e 3d 63 cb 38 3e 45 14 18 3e 7b 64 15 3e
       0.077342 0.18046336 0.14851482 0.14589112
0001f0 af 63 c5 3b 2a 22 20 3c 38 be 19 3e 91 f5 6d 3e
       0.006023846 0.00977377 0.15013969 0.23238207
000200 f2 62 96 bd 1f 24 d9 be e8 e9 d7 be a7 62 ec be
       -0.07343091 -0.4241037 -0.42170644 -0.46169016
000210 64 13 74 3e 3a 1f 8e bc 03 99 39 bc 1a ab a5 be
       0.23835522 -0.017348874 -0.011327985 -0.32357103
000220 b7 c5 1e 3e 84 82 94 be a3 39 05 bd 69 68 03 3c
       0.1550511 -0.29005826 -0.03252567 0.008020499
000230 66 6e 01 3e c3 56 05 3e 05 a7 a9 bd 77 9b ce 3d
       0.1263977 0.13021378 -0.082838096 0.10088246
000240 f9 dd 99 be 5a 71 ad 3e bb 33 82 be d3 29 1a bd
       -0.30052164 0.33875543 -0.25430092 -0.037637543
000250 32 18 f9 3b cc 03 12 3d fc c4 e8 3d 2f cc 01 bc
       0.0076017613 0.035648152 0.11365697 -0.007922216
000260 70 f1 62 3e cf 3a d0 be 05 dc 04 3e 5b 9b b0 be
       0.22162414 -0.40669867 0.12974556 -0.34493527
000270 63 67 39 bd 23 53 89 3d f2 ea 03 be 47 0b c2 bc
       -0.045264613 0.0670531 -0.12882593 -0.023687018
000280 13 80 b4 be a6 60 2b be 3e 9a b9 bd 58 0e cf 3d
       -0.35253963 -0.16736087 -0.090626225 0.10110158
000290 8b 1d 2f bd 63 48 3c 3d 69 33 8e 3d 83 61 7a 3e
       -0.042752784 0.04596747 0.069433995 0.2445126
0002a0 1d c6 31 bd 36 bd aa bd 3e e8 1f be 94 27 63 be
       -0.043401826 -0.0833687 -0.15615937 -0.22183067
0002b0 e1 93 a4 3d 5a aa 00 be 56 7e 55 be 34 02 27 be
       0.08036018 -0.12564984 -0.20848975 -0.16309434
0002c0 e7 c6 0e bd 4a 20 5f be c6 9f 59 be 75 cb 9f be
       -0.034857657 -0.21789661 -0.21252355 -0.31209913
0002d0 c9 d4 91 3d 0b 64 9d bd 75 20 12 3e e6 0b bc 3c
       0.07120664 -0.07685097 0.14270194 0.022954892
0002e0 37 9c 41 bd ab 04 76 3e da b9 ca bd a9 b7 2f be
       -0.04726812 0.24025218 -0.098987296 -0.17159905
0002f0 ac ca 69 be b4 ab f5 3d 5d 14 51 3e cc b1 4e 3e
       -0.2283122 0.119956404 0.20417924 0.20185012
000300 76 b5 62 bd 40 01 2f be 2b 2c 43 ba 29 93 25 be
       -0.055348836 -0.1709032 -0.0007445241 -0.16169418
000310 ef b8 ff bc 0e 81 0f be 63 24 0b 3e 02 80 1d bc
       -0.031216113 -0.14014074 0.13588099 -0.009613039
000320 ff dd 7d 3b f6 af f1 bc da 4c 16 be 55 07 89 bc
       0.0038737056 -0.02950285 -0.14677754 -0.016727129
000330 9c 8f 8c bd 37 12 c2 bc bf 5f 62 be cb 10 93 3e
       -0.06863329 -0.023690326 -0.22106837 0.2872375
000340 03 d1 30 3d 6f ee 1b be b6 6c 12 bd 79 8d 00 be
       0.04316808 -0.15227674 -0.035748206 -0.12553968
000350 9f 9c c2 bd 51 1a d3 bd b7 af 5c bd b9 14 03 be
       -0.09502529 -0.10307754 -0.053878512 -0.12800874
000360 3e 83 16 3c 04 cd 9d bd 42 05 81 bd 98 67 a8 3d
       0.009186564 -0.07705119 -0.06299831 0.08222884
000370 7c e8 86 be 97 0c 19 3e 1a 52 c5 bd 75 ae 80 be
       -0.26349247 0.14946209 -0.096348 -0.251331
000380 a1 47 9b 3e 8b 29 7c 3d 9f 73 aa 3d a3 58 1f be
       0.30328086 0.061563056 0.08322834 -0.15561156
000390 e9 f0 8a 3e f2 6c ce bd d0 12 39 be cd 0e f4 3b
       0.27136925 -0.100793734 -0.18073583 0.0074480535
0003a0 3e f2 ef bc 6a b2 0b be fc c1 6a 3d 9c a5 df bd
       -0.029290315 -0.13642278 0.057313904 -0.10920259
0003b0 4a 3a 7d bd a6 4c 0d be 08 e5 73 3d 54 fd 4d 3d
       -0.061823167 -0.1379877 0.059544593 0.05029042
0003c0 ab 05 f2 bd b3 1e 61 be 6c 0f e2 3e 45 98 c7 bd
       -0.11817487 -0.21984367 0.4415239 -0.0974584
0003d0 63 b1 c9 bb 00 ba 06 bd 3d 84 6a 3c 52 85 00 3d
       -0.0061551793 -0.032892227 0.014313755 0.031377144
0003e0 b6 75 7b 3d 86 64 7d 3e 04 92 99 3e 1c 16 c2 3e
       0.061391555 0.24745378 0.29994214 0.37907493
0003f0 31 44 a5 bc 33 2a 80 bd b4 5d b4 3d 0c c1 d6 bd
       -0.020174118 -0.06258049 0.08806935 -0.104860395

bias f4 [16]
000000 86 ea b0 37 6a e1 a6 38 8e 44 e6 37 9b b4 d0 37
       2.1090043e-05 7.9574835e-05 2.745006e-05 2.4879633e-05
000010 4b 9e ee 37 cc 5c 4e b6 00 a7 c9 b7 39 6a 1c b8
       2.8445522e-05 -3.0750407e-06 -2.4038833e-05 -3.7292226e-05
000020 36 9c eb 37 ab 95 2e b7 32 94 80 37 23 13 82 38
       2.8086924e-05 -1.04060555e-05 1.5327798e-05 6.2024475e-05
000030 d4 b1 42 b8 77 0a db b7 8a 12 36 39 a6 ca 85 38
       -4.641882e-05 -2.6111707e-05 0.00017363779 6.3796804e-05

weight f4 [16]
000000 ae c3 83 3f ad 27 7b 3f 16 fb 86 3f c7 e3 96 3f
       1.0294092 0.98107415 1.0545375 1.1788262
000010 84 9b 8f 3f 9c 28 8e 3f e9 b7 7c 3f 02 9b 72 3f
       1.1219335 1.1106143 0.98718125 0.94767773
000020 7c a9 80 3f c2 d3 70 3f f4 c3 4f 3f 8d 6d 61 3f
       1.0051723 0.94073117 0.81158376 0.88057786
000030 2c 9d 81 3f a7 84 5f 3f e8 94 96 3f 2a 89 95 3f
       1.012609 0.87311786 1.1764193 1.1682484

bias f4 [16]
000000 a6 14 aa bd d1 5c a5 3d 6d 36 0e be f2 90 34 3d
       -0.083047196 0.08074344 -0.1388795 0.044083543
000010 b0 2b d0 bd 0f a5 06 be b3 58 05 be 12 aa 7f bb
       -0.10164583 -0.13148902 -0.13022117 -0.0039011282
000020 ec b2 8e 3d a7 cd 41 be ad f4 09 be 74 81 3b bc
       0.069677204 -0.18926106 -0.13472243 -0.011444438
000030 0b fd 89 be 01 ee 09 3e 45 77 6a bb 8c a9 dd bd
       -0.2695087 0.13469698 -0.0035776657 -0.10823354

running_mean f4 [16]
000000 11 d4 57 be 35 3a 35 be 83 06 90 be 71 be 04 bf
       -0.2107699 -0.17697985 -0.28129968 -0.5185309
000010 7a 4a 85 be 56 5c 6e be 38 f2 89 be a5 ef 1e be
       -0.26033384 -0.23277411 -0.2694261 -0.15521105
000020 24 d0 b2 bd b1 37 12 be 69 fd ce bd 8f 05 cc bd
       -0.08731106 -0.14279057 -0.10106928 -0.09961998
000030 73 bc 69 be 40 e9 4b be 3d 18 a5 be a7 ba 80 be
       -0.22825794 -0.19913197 -0.32245055 -0.25142404

running_var f4 [16]
000000 e9 b3 70 3e 3d 57 ff 3e 9e 4e 00 3f 9a d3 93 3f
       0.2350613 0.49871245 0.5011996 1.1548951
000010 1e 75 f3 3e 41 27 d6 3e c2 55 dc 3e c4 18 9b 3e
       0.4755029 0.41826823 0.43034178 0.30292332
000020 f8 3c 48 3e 8c 9f b0 3e 0c fa c9 3e e0 bc 8d 3e
       0.19554508 0.34496725 0.39448583 0.27683163
000030 8c e2 01 3f f3 00 37 3f f3 b1 27 3f 10 be ee 3e
       0.5073631 0.71485823 0.65505904 0.4662938

weight f4 [32, 16, 3, 3, 3]
000000 79 2f 29 3e a3 21 25 3e 5f a1 78 3e 8c a0 21 be
       0.16522016 0.16126113 0.24280308 -0.157839
000010 1b 3c 0e be 0c 22 10 bd 34 27 aa 3c 45 3f 96 bd
       -0.13890116 -0.03518872 0.020770647 -0.073362865
000020 bc 37 3e 3d a5 14 b3 3d 54 b2 31 3e d6 a4 9a 3e
       0.04643987 0.08744172 0.17353183 0.30203885
000030 c1 bd 6a bd a8 d0 05 3d 59 36 05 3e 9e 7d 4b bd
       -0.05730987 0.032669693 0.13009013 -0.049680345
000040 73 c2 23 be 50 4d c5 bc cf f9 42 3e a6 cd 83 3e
       -0.15992145 -0.024084717 0.19040607 0.25742835
000050 a1 1b bd 3e 40 94 64 bd be 70 9a 3d 7e a0 0f 3e
       0.36935142 -0.055805445 0.07541035 0.14026067
000060 5f 27 ef bd c3 0d 8f be 20 a7 7d be 96 12 92 bd
       -0.11677431 -0.27940187 -0.24770784 -0.07132451
000070 70 83 5d bd e7 aa 4e 3d 2c b5 19 be 73 80 fa bd
       -0.054080427 0.050455954 -0.15010518 -0.12231531
000080 85 cf 03 be f3 a0 55 be 68 ad 81 be e7 1c b8 bd
       -0.12872131 -0.20862179 -0.2532761 -0.08989888
000090 75 cf 06 be 44 96 9b bd f3 ab 2f 3c 52 00 c6 bd
       -0.13165076 -0.0759702 0.010722148 -0.0966803
0000a0 61 a2 d5 bd 06 c1 c7 bd 21 d1 30 be 48 d5 62 be
       -0.10431362 -0.09753613 -0.17267276 -0.22151673
0000b0 4a e9 05 be 21 46 1d be ba 84 c9 bd 3f d1 9b 3c
       -0.13077274 -0.15358783 -0.09839769 0.019020675
0000c0 00 1a 1c be 00 4e e1 bd a9 3f 39 be 5d e0 3f be
       -0.15244293 -0.110012054 -0.1809069 -0.18737932
0000d0 72 02 6c be e6 91 01 be b7 3f 27 bc 7d 6e af bc
       -0.23047808 -0.12653312 -0.010208062 -0.02141499
0000e0 4a cb 1c 3d e7 e1 cc 3c 48 f4 2c 3d ef 6d e0 bc
       0.03827981 0.025010062 0.042225152 -0.02739617
0000f0 1c 20 b5 bc 0f 37 54 be 21 05 3d be f5 4a 61 bd
       -0.022110038 -0.20724128 -0.18458988 -0.055003125
000100 c7 67 97 bd 5e 89 3d bd dc 45 ab bd 86 6e 97 bd
       -0.07392841 -0.04627358 -0.08362934 -0.073941275
000110 89 7d ef bc c1 a4 19 3d 9e 7a a0 bd 15 16 53 bc
       -0.029234665 0.037510637 -0.07835887 -0.012883683
000120 45 09 37 3c ee a1 83 bd 5f ce 80 bd 85 d4 b7 3c
       0.011171644 -0.0642737 -0.06289362 0.022440204
000130 91 b5 2a bd 0d 61 8e 3b d5 25 0e 3e 58 58 aa bc
       -0.04167706 0.0043450654 0.1388162 -0.020794079
000140 b8 f7 6b bc 12 fb 60 be cb 6f 1a be e1 7b 3a be
       -0.0144023225 -0.21970776 -0.15081708 -0.18211319
000150 9d 01 7d bd 08 88 d3 3c 88 1c 30 3e 4c 02 a1 3c
       -0.061769117 0.0258217 0.17198384 0.019654416
000160 0f 1c 99 bc 71 e0 c0 bc 2a 5d 38 be cd f5 0c be
       -0.018690137 -0.023544522 -0.1800429 -0.1376564
000170 ac e3 27 be 96 1b ff bc 75 20 ae 3c d4 1f 4c 3e
       -0.16395444 -0.031141084 0.021255711 0.19934016
000180 f1 02 20 3e 7e b3 d9 3b 01 4b 98 3d 0c b0 15 be
       0.15626122 0.0066437116 0.07436181 -0.14617938
000190 3b ce ca bd 25 db 21 be 52 24 bd 3d 11 82 a4 3d
       -0.099026166 -0.15806253 0.09235443 0.08032621
0001a0 1d e3 65 3e 02 4b 35 3e 1d 3f a0 3d 71 e7 53 3e
       0.22449918 0.17704394 0.07824538 0.20693757
0001b0 65 8e ef 3c fd 49 b9 3d 2a 2e f3 3d 10 e9 7d 3d
       0.029242704 0.09047315 0.118740395 0.061989844
0001c0 1c 38 96 bd b7 24 60 bd 5b 8e f5 bc 1d e9 88 3b
       -0.07334921 -0.054722514 -0.029975107 0.00417818
0001d0 a1 fd ec 3b bd 44 6e 3c f0 4e fc 3d cd 91 17 3e
       0.0072323834 0.014542756 0.12319744 0.14801712
0001e0 99 96 06 3d b5 ca 22 be 8a 3c 21 be 41 db 56 3d
       0.032858465 -0.15897639 -0.1574575 0.05245519
0001f0 33 df be 3c 12 98 64 3d d3 ae 0e 3d 0b a3 16 3e
       0.023299789 0.055809088 0.034834694 0.14710633
000200 ea 39 15 3e 8e b3 15 3e 2a 76 d6 bc 20 bb 1b bd
       0.14572874 0.14619276 -0.026179392 -0.038020253
000210 d3 52 96 3d a1 50 f7 3b 31 bc 97 3d 39 fa 62 bd
       0.07340016 0.0075474535 0.074089415 -0.055414412
000220 56 71 e1 bd 4c 1e 67 be af 12 6a 3e f8 cc 96 bc
       -0.11007945 -0.22570151 0.2285869 -0.018408284
000230 29 d3 52 bd 51 8b 70 3e e2 85 6e 3e e0 7c bb 3e
       -0.05147091 0.23490645 0.2329326 0.3661871
000240 5a f6 5c bd 08 96 84 bd c6 ae 4a be 4b a1 6f 3e
       -0.053945877 -0.06473929 -0.19793233 0.23401372
000250 75 91 dc 3d f5 8c b8 3c ac 08 3b 3e bf 26 b4 3d
       0.10769931 0.022528151 0.18265027 0.08796453
000260 d4 d0 77 3e 15 82 a2 bd 78 76 ca bd 60 63 60 be
       0.24200755 -0.079349674 -0.09885877 -0.21912909
000270 25 af 40 3e 1d 31 b1 3c fd 84 da 3c 77 bd 5d 3e
       0.18816812 0.021629864 0.026674742 0.21654306
000280 26 61 24 3e f0 11 94 3e 65 f7 08 be 9f a7 33 bd
       0.16052684 0.28919935 -0.13375624 -0.043861028
000290 c0 4a 2f be d2 c0 c6 3d c8 c0 2b bd 58 cb 21 3d
       -0.17118359 0.09704746 -0.041931897 0.039500564
0002a0 72 10 51 be 5f 31 9a be 35 17 3f be bd e6 f5 bd
       -0.2041643 -0.30115792 -0.18661197 -0.120069005
0002b0 18 18 21 bc f0 65 8f bd 3f ef b0 3d ca da 42 bd
       -0.009832405 -0.07001865 0.086393826 -0.047571935
0002c0 14 54 71 bc 03 e8 69 be 26 df a2 be 73 11 43 be
       -0.014729518 -0.22842412 -0.31810874 -0.19049625
0002d0 73 ce 04 be e6 80 f8 bb a8 95 09 3b b9 83 a3 3d
       -0.12969379 -0.0075837253 0.0020993743 0.079841085
0002e0 43 33 8f bd 6f 3f 6a bd 2b 1c 41 be db 0f af be
       -0.06992199 -0.0571894 -0.18858401 -0.34191784
0002f0 b9 ae 4a be 52 a2 1d be dc fe c2 bd f2 d1 28 bd
       -0.19793214 -0.15393952 -0.09521267 -0.041215844
000300 d1 75 c1 bd 29 ed 44 ba 91 7b a0 3c 91 77 17 be
       -0.094463 -0.0007512146 0.019590171 -0.14791705
000310 36 e5 19 be 66 dd 0b be 22 8f 15 be 43 d9 f7 bd
       -0.15028843 -0.13658676 -0.14605382 -0.12101986
000320 b2 ea 7a bc b4 30 ba bd 60 19 33 3d 63 50 cc 3d
       -0.015314745 -0.09091321 0.04372537 0.0997627
000330 49 23 29 bd d2 7b c3 bd 0d d7 b2 bd d3 be 36 be
       -0.041293416 -0.09545101 -0.08732424 -0.17846231
000340 e8 03 18 be 36 d6 b3 bc 73 ff 46 be 8d 5a 0d 3d
       -0.1484524 -0.02195273 -0.19433384 0.034510184
000350 d4 4f f3 3d f6 14 4e bd 4b b9 d1 bd 32 df d4 bd
       0.118804604 -0.05031296 -0.1024042 -0.103941336
000360 15 16 d8 3d d4 31 1b 3d 0b 11 2b 3e 52 59 91 3d
       0.10551087 0.037889317 0.1670572 0.070971146
000370 66 83 9f bc 53 0f a4 bd f4 8b 89 3e 73 65 a0 3d
       -0.019471835 -0.08010735 0.26864588 0.0783185
000380 1b c5 e2 3c 2f 7b 98 3d c8 a2 06 3d ff 10 a0 3d
       0.027681878 0.074453704 0.032870084 0.07815742
000390 72 ec 80 3d b1 da e1 3b b4 9b db bd e5 fb 67 3e
       0.06295098 0.006892525 -0.107230574 0.22654684
0003a0 1e a7 9e 3d 25 69 52 3d 6f 46 8c 3d c9 1a 4d 39
       0.07746719 0.051369805 0.06849372 0.00019560302
0003b0 d0 04 ab 3d 67 83 e0 3c 20 84 ae bd cd 98 d2 bd
       0.08350527 0.027406408 -0.085212946 -0.10283051
0003c0 9c 84 92 3e 33 2e 10 3e 28 a8 f7 3d 52 6c 97 3c
       0.28616798 0.14080124 0.1209262 0.018484268
0003d0 08 aa 0d be 96 be 29 be 75 2a 6d bd 46 ae a8 bd
       -0.13834393 -0.16576609 -0.05790182 -0.08236365
0003e0 45 ad f9 bd 55 09 64 3d 45 68 30 3d bb 02 11 3e
       -0.12191252 0.055672962 0.04306819 0.14161198
0003f0 59 13 65 bd f2 73 62 bd b0 d4 29 be fa b8 c8 bb
       -0.055926654 -0.055286355 -0.1658504 -0.0061255665

bias f4 [32]
000000 1b ec 36 b6 8c ac 3c b6 1a dc 49 b5 99 eb e8 b7
       -2.7257545e-06 -2.8114619e-06 -7.5198625e-07 -2.7766264e-05
000010 14 b5 c4 37 e6 51 a9 35 d4 59 63 37 e5 0d d7 36
       2.3449342e-05 1.2615317e-06 1.3551169e-05 6.409117e-06
000020 c1 ca 86 b6 dc ba a5 36 bb 8a ba 36 df 0e 46 b6
       -4.017115e-06 4.9391365e-06 5.5593823e-06 -2.9512955e-06
000030 89 d4 6f b5 3a eb 29 b6 8f ff ed b6 6b 75 97 b6
       -8.934372e-07 -2.5319882e-06 -7.0929013e-06 -4.51382e-06
000040 33 d2 ec b6 58 3d 3e b6 6c ff 37 b7 ba 58 64 b6
       -7.0578185e-06 -2.8347913e-06 -1.096712e-05 -3.4026293e-06
000050 72 4a 8b b5 cc a4 07 b7 a0 12 75 b7 c8 92 91 36
       -1.0377973e-06 -8.084997e-06 -1.4607474e-05 4.3384243e-06
000060 5f 29 2c 37 9f 17 ed b5 f8 d5 96 b6 bd 35 18 37
       1.0261631e-05 -1.7664751e-06 -4.4952576e-06 9.072418e-06
000070 00 0d bf 35 0e b7 7a 37 9b 46 94 b5 5d 0f e8 b6
       1.4234392e-06 1.4943782e-05 -1.1047408e-06 -6.9159273e-06

weight f4 [32]
000000 e9 5d 5a 3f 9b 33 52 3f 0b 57 77 3f f8 7d 8b 3f
       0.85299546 0.82109994 0.9661719 1.0897818
000010 f8 f0 66 3f a9 c3 5d 3f 59 61 58 3f 82 f8 8f 3f
       0.9021144 0.8662668 0.8452354 1.1247714
000020 b1 d6 70 3f c2 be 5a 3f 2b ac 61 3f 14 e5 71 3f
       0.94077593 0.85447323 0.8815333 0.9449017
000030 ab 13 88 3f bb 2c 5a 3f cb fa 91 3f 21 b1 3a 3f
       1.0631002 0.85224503 1.1404661 0.7292653
000040 ba 05 83 3f 76 a4 54 3f c8 e8 80 3f 12 cb 7e 3f
       1.0236123 0.8306345 1.0071039 0.9952861
000050 94 c4 53 3f 97 35 72 3f 13 6d 6a 3f 85 07 6a 3f
       0.8272183 0.9461302 0.91572684 0.91417724
000060 f6 05 31 3f 84 22 85 3f 12 de 62 3f ba 5f 78 3f
       0.6914972 1.0401158 0.886201 0.9702107
000070 8d 14 7b 3f 31 6b 6b 3f 02 33 67 3f 4d be 62 3f
       0.98078233 0.91960436 0.90312207 0.88571626

bias f4 [32]
000000 a5 d7 29 be 03 28 1e bf 29 ec 17 be 37 2b 9b be
       -0.16586168 -0.61779803 -0.14836182 -0.30306408
000010 c8 d1 23 bd b8 1d dc be 12 7e 6b be f1 da 06 be
       -0.039994985 -0.42991424 -0.22997311 -0.13169457
000020 91 5d 83 be 1c ed 85 be 16 2b b2 bd ef b9 d7 bb
       -0.25657323 -0.26157463 -0.08699624 -0.0065834443
000030 ca d1 37 be 6a ad 90 be d2 ff 96 be f5 69 bc be
       -0.17951122 -0.28257304 -0.2949205 -0.3679959
000040 af 1b 06 bd 25 d8 99 be 44 38 97 be db 48 1b bf
       -0.032741245 -0.30047718 -0.29535115 -0.60658044
000050 e8 a1 a8 be 99 13 84 be ba 01 8e be 05 7f b2 be
       -0.32936025 -0.25796202 -0.27735692 -0.34862533
000060 fe 2b c7 be 57 37 7e be 3d 96 b4 bd 56 3e bb be
       -0.3890075 -0.24825798 -0.08817718 -0.36570996
000070 e6 61 86 be 5f d3 8e be e5 81 17 3d 94 44 ab be
       -0.26246566 -0.27895638 0.03698911 -0.33450758

running_mean f4 [32]
000000 3a 62 f4 bf b4 66 95 3f 3f 77 ac c0 b3 27 1d c0
       -1.9092476 1.1671968 -5.3895564 -2.455548
000010 87 ff fa bf 28 9d b5 bf 92 a6 d8 bf e0 d1 19 c0
       -1.9609231 -1.4188585 -1.6925833 -2.4034348
000020 b4 2b d7 bf 13 85 57 bf cd 33 dd bf a9 c5 9d bf
       -1.6810212 -0.8418743 -1.7281433 -1.2325946
000030 50 af 43 c0 f7 67 34 c0 43 26 aa be c5 9c 1b bf
       -3.0575752 -2.8188455 -0.33232316 -0.60786086
000040 09 32 1c c0 8e af de bf be f0 a0 bf d2 75 fa be
       -2.440554 -1.7397325 -1.2573469 -0.48918015
000050 42 11 af bf dc 7e 22 c0 2e 1b d5 bf 90 ad ae 3e
       -1.3677142 -2.538993 -1.664892 0.34116793
000060 b0 3d 01 bf f1 cf 43 c0 84 13 dc be da 4b 15 c0
       -0.5048475 -3.0595667 -0.4298364 -2.3327546
000070 8b eb dd bf ba db b3 bf 6a 5f dc bf 8f ed 69 bd
       -1.7337507 -1.405143 -1.7216618 -0.05711132

running_var f4 [32]
000000 e1 d9 41 40 ee 0a 2a 40 99 2e 03 41 23 bc 95 40
       3.0289233 2.656917 8.198876 4.679216
000010 d9 a7 af 40 8c c9 6b 40 31 4d 63 40 4b 19 b4 40
       5.489239 3.6841764 3.5515864 5.6280875
000020 3f 16 81 40 3b e9 69 40 e0 5f a0 40 24 74 95 40
       4.0339656 3.6548603 5.0117035 4.6704273
000030 2e 5b c4 40 13 ac 47 40 5f 0f 9f 40 de 05 22 40
       6.1361303 3.1198776 4.9706264 2.531608
000040 2c 9e cd 40 27 f2 6e 40 51 5f 71 40 48 50 93 40
       6.425558 3.7335298 3.7714427 4.60355
000050 6e 59 19 40 a4 15 8f 40 f2 0e db 40 5e 8d 9b 40
       2.3960834 4.4713917 6.8455744 4.8610067
000060 9d 58 28 40 3f 6c 98 40 90 44 50 40 b4 57 3b 40
       2.6304085 4.7632136 3.2541847 2.927228
000070 b0 5d 82 40 d5 ba b8 40 b2 7d bb 40 7a 51 7c 40
       4.0739365 5.7728066 5.8590937 3.942473

weight f4 [32, 32, 3, 3, 3]
000000 dd 58 85 bd e4 f1 46 bd 22 f2 83 bd 77 1b 6e bd
       -0.0651109 -0.04857053 -0.064426675 -0.05813166
000010 e0 ae 04 be 7c 90 b4 bd e8 6e d1 bd 41 08 81 bd
       -0.12957335 -0.08816621 -0.10226232 -0.063004024
000020 62 f5 28 bd b9 6d 6f bd f3 2f ec bc 34 2e 74 3b
       -0.04124964 -0.05845425 -0.028831458 0.0037258985
000030 d2 32 6e bd a8 60 bc bd 79 7d ea bd 06 ad f4 bc
       -0.058153935 -0.09198123 -0.11449713 -0.02986766
000040 9d 1a 81 bc c1 ef 43 bc 0a bd 3a bc ae ba f1 bc
       -0.01575976 -0.011959017 -0.0113976095 -0.029507961
000050 4f 61 56 bc f9 b2 97 bc 07 0a d7 bd 7b 69 aa bd
       -0.013084724 -0.018517958 -0.104999594 -0.083209
000060 5d a7 5c 3c 99 00 d2 3c 17 09 a8 3c 78 5c 27 be
       0.013467637 0.02563505 0.020512147 -0.16343868
000070 69 37 08 be ba 83 90 bd 52 5b 25 be 61 c1 e8 bd
       -0.13302387 -0.07056375 -0.16148117 -0.11365009
000080 84 d7 11 be f8 c9 ac be 37 25 89 be 42 11 5c be
       -0.14242369 -0.3374784 -0.26786205 -0.21490958
000090 56 a6 1b be 35 4c ff bd c2 be 82 bd 1c 10 dc bd
       -0.15200171 -0.12465707 -0.063840404 -0.1074526
0000a0 b8 3d a3 bd fe b9 00 be e4 e5 9b be a8 b5 86 be
       -0.07970756 -0.1257095 -0.3044883 -0.26310468
0000b0 e1 03 7e be b9 0e 16 be e6 0f 19 be c1 bf f4 bd
       -0.24806167 -0.14654054 -0.14947471 -0.11950637
0000c0 14 74 16 be b9 78 c7 bd 3e 96 24 be 52 fc 9b be
       -0.14692718 -0.09739823 -0.16072938 -0.30465943
0000d0 e5 3e 96 be bb 98 8e be ae 07 5c 3e 16 39 09 3e
       -0.2934486 -0.278509 0.21487305 0.13400683
0000e0 4e fe 69 3e a1 7c 81 3d d8 9e e9 3c 4a 0d 39 3e
       0.22850916 0.06322599 0.028518125 0.18071476
0000f0 8e e7 16 bd b9 af 10 be 42 92 bf 3c 4e 84 7e 3e
       -0.03684192 -0.14129533 0.02338517 0.24855158
000100 80 78 1f 3e 26 6b 77 3e 24 e4 85 3d 00 c3 fa 3c
       0.15573311 0.24161968 0.06537655 0.030610561
000110 08 40 2b 3e c0 66 79 bd 79 94 09 be 08 42 ac 3c
       0.16723645 -0.060889006 -0.13435544 0.02102758
000120 b3 af 8a 3e e6 3d 2b 3e a2 6a 8f 3e 8a b1 41 3d
       0.27087173 0.16722831 0.28011042 0.047288455
000130 a4 5e 3b 3d e8 c6 43 3e 3f a9 ac bd 54 03 1a be
       0.045744553 0.19118845 -0.08430719 -0.15040332
000140 68 28 03 3d dc 55 89 be 75 6a d3 bd 95 c8 f5 bd
       0.032020956 -0.26823318 -0.103230394 -0.120011486
000150 c8 c5 b5 bd f8 4f 3b bd 80 00 2b bd 7e 0a 19 3e
       -0.088756144 -0.04573056 -0.041748524 0.14945409
000160 39 0f 81 3e cb 2e 31 3e 85 8d 77 be 06 97 87 bd
       0.25206926 0.17303006 -0.24175079 -0.06620602
000170 b7 fa a3 bd 2d b6 a0 bd 5f ac db bc 38 4f 29 bd
       -0.080068044 -0.07847247 -0.026815591 -0.041335315
000180 10 86 4b 3e c8 b4 8c 3e 52 14 38 3e 94 ef 73 be
       0.1987536 0.27481675 0.17976502 -0.2382186
000190 85 f4 ad bd 65 a3 ef bd d4 7a e7 bd 4f cb 6b bd
       -0.08493904 -0.11701087 -0.113027245 -0.057566937
0001a0 a6 18 b6 bd a6 9b 34 3e 7c 50 84 3e 88 b0 31 3e
       -0.0889142 0.176375 0.25842655 0.17352498
0001b0 90 47 2a bd 83 e0 8b bd e0 c5 e2 bd 77 79 f8 3d
       -0.041572154 -0.068299316 -0.11072898 0.121325426
0001c0 12 01 eb 3d 33 f2 77 3d ac 3e 05 be 71 1c 75 3d
       0.114748135 0.060533714 -0.13012189 0.059841577
0001d0 07 48 9d 3c 03 54 55 bd ca 96 e9 bd 6b 42 29 be
       0.019199384 -0.052082073 -0.11405714 -0.16529243
0001e0 a0 96 5c 3e 0a ab 36 3e 79 20 a7 3d 71 b2 4a bd
       0.21541834 0.17838684 0.081604905 -0.04948658
0001f0 2e 53 e4 3d b8 d8 92 3d d3 3f bb 3c 38 de ed ba
       0.11148678 0.07170242 0.022857582 -0.0018147891
000200 30 a8 db bd d0 68 45 3e 8e 1f 3b 3e 2c 78 ec 3d
       -0.107254386 0.19278264 0.18273756 0.115463585
000210 9f f2 5b bd 70 d5 ae 3d 90 a5 69 3d 62 86 dd bd
       -0.05369818 0.08536804 0.05704266 -0.10816647
000220 76 30 a5 bd 32 34 11 be 27 63 20 3d 9c f2 93 3d
       -0.08065884 -0.14180067 0.03915706 0.072240084
000230 ca 11 2e 3e cb 0c 05 bd 06 7b c5 3d f1 88 3c 3d
       0.16998973 -0.032482903 0.096426055 0.046029035
000240 d8 05 da bd 23 0a b3 bd 0d c0 26 be 7c 36 1a 3d
       -0.10645646 -0.08742168 -0.16284199 0.037649617
000250 40 9e c6 3d e5 7e 1e 3e 55 06 4f 3c ae 6f ff 3d
       0.096981525 0.15478094 0.012635787 0.12472473
000260 82 6c 4b 3d 6e 14 e9 bd d3 e2 b7 bd a3 90 3d be
       0.049664028 -0.1138085 -0.0897881 -0.18512206
000270 a3 7c 0f 3d 1e da d3 3d 22 09 08 3e f2 0f 46 3c
       0.035030972 0.10344337 0.13284734 0.012088763
000280 2e ff 08 3e 12 1d 70 3d 31 68 16 3e 03 60 1f 3e
       0.13378593 0.058621474 0.14688183 0.1556397
000290 51 cd 6e 3e 01 5e fa 3c 01 ae 5e 3d bd 15 62 3d
       0.2332051 0.030562403 0.05436516 0.055196512
0002a0 2f 53 19 3d 6a 84 82 bd f9 18 5c bb 6c 9e 34 3e
       0.037432846 -0.06372912 -0.003358422 0.17638558
0002b0 66 e0 0e 3e 6d 6b 45 3e 54 9b 31 3d 8d aa 91 3d
       0.13952789 0.19279261 0.043361023 0.07112608
0002c0 d9 37 69 3d ab db 3e 3d e5 c6 47 bd 42 5a bf bb
       0.056938026 0.04659621 -0.048773665 -0.005839617
0002d0 82 3c 32 3e bf de 2b 3e ad 1b 58 3e d6 f8 50 3d
       0.17405894 0.1678419 0.21104307 0.05101856
0002e0 90 00 81 3d 3d 0e 3a 3c 9a e0 82 3b 14 bd 39 bd
       0.062989354 0.011355934 0.0039940597 -0.045346335
0002f0 7d 9a 52 3c d3 7a 87 bc 4c 9c 92 3d fa ff 75 3d
       0.012854216 -0.01653806 0.071587175 0.06005857
000300 9d 85 d9 3d ae 76 16 3e 3f 70 4b 3e 21 c2 07 3d
       0.10621188 0.1469371 0.19867037 0.03314412
000310 e6 dd 1f 3e 80 aa 9e 3d 33 01 42 bd 5e 63 e7 3c
       0.15611991 0.07747364 -0.047364425 0.028245624
000320 76 c2 35 3d 19 6a b5 3d 0b 1b 0b 3e 59 b3 33 3e
       0.044374906 0.08858127 0.13584535 0.17548884
000330 42 22 b5 3c 09 e7 ab 3d b2 e0 05 3c 8b 1e 67 bd
       0.022111062 0.08393676 0.008171247 -0.056425612
000340 08 82 ad 3c d7 a1 4e 3d 4f 01 b9 3d d9 4d 0f 3e
       0.021180168 0.05044731 0.09033453 0.1399454
000350 9c b1 33 3e 7e 37 76 3d 13 06 06 3e c3 f7 35 3d
       0.17548221 0.060111515 0.13088255 0.044425737
000360 e7 23 97 bd 9e 74 51 3d 4b 7a 30 3e ce 14 d9 bb
       -0.07379895 0.051136605 0.17234151 -0.0066247946
000370 75 7b dc 3d e7 a9 23 3e 9a 2d 23 3e 22 cb 32 3e
       0.10765735 0.15982781 0.15935364 0.17460302
000380 8f a3 60 3e 87 58 6a bd 0a 88 a6 3c 49 30 18 3e
       0.21937393 -0.057213333 0.02032854 0.1486217
000390 2f 00 83 3c 2f 55 c9 3d 7b 0c f9 3d ab de 36 3e
       0.015991298 0.098307006 0.121605836 0.17858379
0003a0 61 7d 3b 3e c8 4b 2f 3e 90 1a 9a 3b 78 60 95 3d
       0.18309547 0.17118752 0.0047028735 0.072937906
0003b0 e7 4f 34 3e cd a3 e7 bc 51 aa 3f 3d f5 8b a2 3d
       0.17608605 -0.028276348 0.046793286 0.07936851
0003c0 81 b7 d2 3d 0d a6 e0 3d f1 fd 3e 3e 61 55 ed bd
       0.10288907 0.10969172 0.18651558 -0.1158855
0003d0 a5 18 43 bd ec eb 5f bd 87 01 74 bd 20 9e e8 bc
       -0.047630925 -0.054668352 -0.05957177 -0.028395712
0003e0 c3 8c 93 bd e7 e2 ee bd f6 33 af bd 3b 01 3b be
       -0.072045825 -0.11664372 -0.08554833 -0.18262188
0003f0 05 e2 cd bd b7 06 6e bc 6a 6f 1b bd 66 8e 86 bc
       -0.100528754 -0.014527968 -0.03794805 -0.016425323

bias f4 [32]
000000 4a e6 33 34 78 31 3f b4 56 52 c1 b4 76 74 fd b4
       1.6754453e-07 -1.7806258e-07 -3.600896e-07 -4.720966e-07
000010 b6 d6 66 36 4b 23 93 36 bd 88 16 b4 2a 2a 28 34
       3.439765e-06 4.38505e-06 -1.4019584e-07 1.5661558e-07
000020 3f d0 a2 35 ee d0 ad b6 a9 5d 50 35 dc 94 f0 35
       1.2130548e-06 -5.1801244e-06 7.762233e-07 1.7924717e-06
000030 c4 d9 0a b7 ef 84 c6 b6 7f b9 25 37 06 1d c8 36
       -8.2761435e-06 -5.9163353e-06 9.877956e-06 5.9638433e-06
000040 17 a5 6b 35 cd 6f 2b 35 f3 46 59 b6 45 3a 02 b7
       8.778456e-07 6.3865156e-07 -3.2376818e-06 -7.762171e-06
000050 40 02 5b b7 c0 c9 0f b7 1f ff 6f b6 4a f5 4d b6
       -1.3053941e-05 -8.570438e-06 -3.5762275e-06 -3.0690157e-06
000060 eb 62 0b b3 ef 6e c6 34 c8 aa 49 b5 b5 fb 60 b6
       -3.2453425e-08 3.696109e-07 -7.5126854e-07 -3.3525114e-06
000070 b5 73 d8 b5 fe 4f 83 b6 98 c8 9a 35 1c b3 fc b4
       -1.6126929e-06 -3.9134165e-06 1.1532275e-06 -4.7068977e-07

weight f4 [32]
000000 93 73 5b 3f f3 aa 42 3f 41 70 71 3f 00 e0 3e 3f
       0.8572323 0.760421 0.9431191 0.74560547
000010 5e 1d 53 3f 49 54 35 3f a9 e9 81 3f 40 85 53 3f
       0.82466686 0.70831734 1.0149432 0.826252
000020 97 4c 80 3f bb 77 62 3f 8c d3 58 3f 73 69 4e 3f
       1.0023373 0.88463944 0.84697795 0.8062965
000030 ab 12 8f 3f 5e aa 5a 3f 60 35 8b 3f ed bc 56 3f
       1.1177572 0.8541621 1.0875664 0.8388203
000040 bd 5e 58 3f 2e 90 5c 3f b2 a5 4c 3f cf a1 35 3f
       0.8451956 0.861575 0.7994033 0.70950025
000050 5d a8 80 3f 3d 5d 61 3f 23 f1 59 3f 3d 98 5c 3f
       1.005138 0.88032895 0.8513357 0.861698
000060 26 55 6d 3f 22 aa 80 3f 03 21 63 3f aa 2c 4c 3f
       0.9270805 1.005192 0.88722247 0.7975565
000070 ef 54 79 3f 02 c1 68 3f 95 3c 67 3f 1f 2e 87 3f
       0.97395223 0.90919507 0.90326816 1.056095

bias f4 [32]
000000 7d 24 ed be 84 f7 c0 be fe 55 c3 be 85 7f 47 be
       -0.463169 -0.3768884 -0.38151544 -0.19482239
000010 e1 3c 0c bf 57 4c 69 be 76 08 4c bf b3 62 d0 be
       -0.54780394 -0.22783028 -0.7970041 -0.40700302
000020 34 ce 07 bf 70 ca a9 be be f7 64 be 99 74 f3 be
       -0.53049016 -0.3316226 -0.22360131 -0.47549894
000030 9a 21 e5 be 72 6b 03 bf eb 1d 1e bf 44 52 8c be
       -0.44752198 -0.51335824 -0.617644 -0.27406514
000040 ed 7f 8b be da 56 8e be 3c e5 cd be e4 15 cb be
       -0.27246037 -0.27800637 -0.40213954 -0.3966514
000050 02 8b 0b bf 2e d8 a9 be 51 a9 b3 be bb 9d f2 be
       -0.54508984 -0.33172745 -0.35090116 -0.47385964
000060 e8 1c a4 be fb 06 00 bf b1 8b c6 be 72 cc c9 be
       -0.32053304 -0.5001065 -0.3877845 -0.39413792
000070 c2 6f 9a be c8 c5 b0 be ca 87 2f be 41 c1 c1 be
       -0.3016339 -0.34525895 -0.17141643 -0.37842754

running_mean f4 [32]
000000 d8 89 48 c0 1d ec 9e 3d 29 8a 96 bf 28 7e c0 bf
       -3.1334133 0.07759879 -1.1760913 -1.50385
000010 b1 6f ee bf 3f 2c f8 3f 5e 55 6c c0 b9 53 3f c0
       -1.8627836 1.9388503 -3.6927104 -2.989485
000020 32 15 9b c0 77 50 0d c0 36 f9 02 c0 d5 b4 84 3d
       -4.8463373 -2.2080362 -2.0464606 0.064798035
000030 ad b9 77 c0 d4 6c 6e c0 49 ca 62 c0 5a e4 ba bf
       -3.8707078 -3.7253923 -3.5435965 -1.4600937
000040 ee ff 03 bf 48 8c 1a c0 73 6e c6 bf a3 b5 6a 3d
       -0.5156239 -2.414812 -1.5502456 0.05730213
000050 f7 ca 91 c0 45 db 1b c0 94 2f 30 c0 27 53 ff bf
       -4.556026 -2.4352582 -2.752904 -1.9947251
000060 86 7a 4b c0 dd 6c 7d c0 9c 23 0a c0 40 7d 37 c0
       -3.1793532 -3.9597695 -2.1584234 -2.8670197
000070 c0 4b 9e c0 e1 5d 3e c0 80 27 dc bf fe a2 82 c0
       -4.946747 -2.97448 -1.7199554 -4.0823965

running_var f4 [32]
000000 a6 6d 8c 40 22 a3 e9 40 42 c2 07 41 c6 ee f9 40
       4.388385 7.3011637 8.484926 7.810397
000010 ec e1 74 40 a4 f1 cd 40 69 ac 14 41 17 bb 6e 40
       3.8262892 6.435747 9.292092 3.730169
000020 25 d7 15 41 fd 10 17 41 76 21 ea 40 af 81 a6 40
       9.3650255 9.441648 7.3165846 5.2033305
000030 74 db f6 40 ee 87 e9 40 d2 bc fe 40 bb ad b2 40
       7.7142887 7.297843 7.9605494 5.5837073
000040 84 e2 c8 40 9d 8f a0 40 e0 93 d3 40 73 a3 1c 41
       6.277651 5.017531 6.611801 9.789905
000050 14 b9 26 41 7a 5f 2e 41 1c e7 cb 40 9c 11 c0 40
       10.420185 10.89831 6.3719616 6.0021496
000060 04 02 af 40 99 17 ca 40 fd e8 d6 40 fd 66 06 41
       5.468996 6.3153806 6.715941 8.400144
000070 9e db 2f 41 47 8b 3e 41 2d f9 13 41 2c 5f 4f 41
       10.9911175 11.909003 9.248334 12.960735

weight f4 [64, 32, 3, 3, 3]
000000 77 6e 25 bd 43 e3 e7 bd 5f cf 31 be 68 a5 b9 bd
       -0.04038855 -0.113226436 -0.17364262 -0.09064752
000010 33 8a 18 be f8 98 2a be 71 c4 82 bd 6a 65 d7 bd
       -0.14896469 -0.16659915 -0.063851245 -0.1051739
000020 7e 9d e0 bd 6c 0c 19 bd 15 15 d0 bd c7 7d 32 be
       -0.10967539 -0.037365362 -0.10160271 -0.17430793
000030 1e 01 aa bd f1 b1 14 be b5 9f 1d be 27 f3 92 bd
       -0.08300994 -0.14521004 -0.15392955 -0.07175284
000040 4f 68 d4 bd f9 ad 02 be 91 48 9f bd 67 75 0e be
       -0.10371458 -0.12761678 -0.07777513 -0.13911973
000050 56 e1 44 be cf c8 f3 bd bc 0e 2f be 9f 08 38 be
       -0.19226584 -0.119035356 -0.17095464 -0.17972039
000060 5b 83 a4 bd b8 43 f3 bd ad 24 ef bd a8 22 7f bd
       -0.080328666 -0.11878151 -0.11676917 -0.06228891
000070 13 cc d7 3c 15 09 51 bd d3 ad b1 bd f7 c6 20 3d
       0.026342427 -0.051034052 -0.086757325 0.039252248
000080 72 eb 1a bd cb 68 e5 bd df e2 03 3c e3 b9 96 bd
       -0.037822194 -0.11201628 0.008049696 -0.07359674
000090 6f 17 67 bd 1a de b5 3c ca 33 43 bd 89 75 b3 bd
       -0.056418832 0.022200633 -0.04765681 -0.087626524
0000a0 ae 32 28 3d 55 03 9d bc 31 f9 b9 bd 2d ff 16 3d
       0.041063957 -0.019166628 -0.090807326 0.03686445
0000b0 f2 b6 2e bd 92 09 d6 bd 1a 94 55 bc ca bf af bd
       -0.04265494 -0.10451044 -0.013035798 -0.08581503
0000c0 a9 46 fb bd 50 90 29 3c 4f d1 52 bd 19 e1 ea bd
       -0.12269337 0.010349348 -0.051469143 -0.11468715
0000d0 ec c1 87 3c cd 9d 94 bd 95 a8 05 3e 59 0c 8c 3d
       0.016571961 -0.072566606 0.1305259 0.06838293
0000e0 e6 3a 44 3d 12 37 00 3e 26 f3 90 3d 9a 3a 7b 3d
       0.047907732 0.12521008 0.07077627 0.061335184
0000f0 ac 38 f4 3d e3 51 5a 3d 4f ea 80 3d 7b 92 f1 3d
       0.11924872 0.05330075 0.06294691 0.11795517
000100 ec 2c 8b 3d 5a 0e 47 3d 65 7c fb 3d cd 9f 86 3d
       0.067956775 0.04859767 0.12279586 0.06573448
000110 2d 10 35 3d 3d f4 f2 3d df 86 36 3d a1 a0 78 3d
       0.04420488 0.11862991 0.044562217 0.060700063
000120 69 5e 17 3e 84 6b ab 3d 16 df 84 3d b6 e1 19 3e
       0.14782108 0.08370116 0.06487863 0.15027508
000130 64 37 cd 3d df 72 9f 3d 61 b1 16 3e 26 1f b7 3d
       0.100203305 0.07785582 0.14716102 0.08941488
000140 a2 1f bd 3d 21 b2 9d bd e7 d7 d4 bd fa 33 30 be
       0.09234549 -0.07699991 -0.103927426 -0.17207327
000150 59 1e af bd a6 09 91 bd 67 ce 00 be 60 63 ef bd
       -0.0855071 -0.070819184 -0.12578736 -0.11688876
000160 99 8b db bd 7c 70 08 be 30 13 9c bd 55 8b da bd
       -0.107199855 -0.1332416 -0.07620847 -0.10671107
000170 36 7e 35 be 78 2f b6 bd 81 cb 9b bd ca c4 07 be
       -0.17723927 -0.08895773 -0.07607175 -0.13258663
000180 29 a7 df bd 7e 6c c0 bd e0 11 fd bd 0d 20 80 bd
       -0.10920555 -0.09395693 -0.12356925 -0.06256113
000190 22 ce da bd 06 27 34 be 03 4f af bd 6a 29 a5 bd
       -0.10683848 -0.17593011 -0.08559992 -0.0806454
0001a0 a3 f8 14 be 32 6e bf bd ca e5 b3 bd 2e c3 f0 bd
       -0.14547972 -0.0934719 -0.08784063 -0.117559776
0001b0 b4 6f e9 3d 44 6c 08 3e 4f 53 1d 3e 92 d1 c6 3c
       0.11398259 0.1332255 0.15363811 0.024269853
0001c0 90 42 40 3d cb 91 3c 3d 9f ee 0c 3c 64 ef 88 3c
       0.04693848 0.046037477 0.008601814 0.016715713
0001d0 de 6b 4b bc c2 68 ce 3d 0c 5f e8 3d 6d c3 0d 3e
       -0.012415854 0.10078575 0.11346254 0.1384408
0001e0 16 ed e3 3c 50 06 3d 3d 8e dd 1d 3d 1d f6 2a 3c
       0.027823012 0.0461486 0.03854137 0.010434655
0001f0 95 9a c1 3c c3 d2 2d bc 60 0b c7 3d 08 bf f1 3d
       0.02363328 -0.010609332 0.097189665 0.118040144
000200 1c 54 07 3e a3 d4 ad 3c 47 97 3d 3d c5 5d 19 3d
       0.13215679 0.021219557 0.046286847 0.03744294
000210 db 82 a6 bb 73 d3 41 3b 92 4d dd bc 80 50 bb bd
       -0.005081517 0.0029575496 -0.027014527 -0.091462135
000220 ac 9f 36 bc 33 31 38 bc 44 5a 0b bd aa 1a 9b 3c
       -0.011146467 -0.011242199 -0.03402163 0.018933613
000230 ce 7b ea 3b 26 c5 0b be 33 dd 1c bd c6 f2 33 bd
       0.007155872 -0.13649425 -0.03829689 -0.0439327
000240 9c 6f 80 bd 6b 76 6e 3c 93 85 18 3c 93 94 ec bb
       -0.06271288 0.0145546 0.00930919 -0.00721986
000250 70 27 24 3d 30 cf aa 3c 66 88 df bd 4f 17 66 bc
       0.040076673 0.020850748 -0.10914688 -0.014043643
000260 08 36 dc bc dc b8 a8 bd cd 32 11 bc b5 57 64 bc
       -0.026881233 -0.08238384 -0.0088622095 -0.013936927
000270 89 5c e4 bc 27 40 49 3c 50 ae 66 bc 86 88 0a be
       -0.027876155 0.0122833615 -0.014079645 -0.13528642
000280 a9 bf 37 bd d2 96 7d bd 0f e2 b9 bd 9e 8d 16 bd
       -0.044860516 -0.06191141 -0.090763204 -0.03675615
000290 02 98 ca bd 78 b0 09 bd 58 0c 1d bd 79 26 2f bd
       -0.098922744 -0.03361556 -0.03834185 -0.0427613
0002a0 59 e7 b6 bd 82 3b 90 bd 55 8e 18 be 92 34 8a bd
       -0.08930845 -0.070426 -0.14898045 -0.06748308
0002b0 97 76 69 bc ee d6 b0 bd 29 7e e2 bc 38 e5 01 bd
       -0.014249465 -0.086347446 -0.027648048 -0.03171274
0002c0 e0 f4 0b bd e9 2e a4 bd d7 47 4f bd 8f ba fc bd
       -0.034169078 -0.0801676 -0.05060562 -0.12340271
0002d0 84 0e a4 bd a5 16 f4 bc bb 97 ca bd a6 0e db bc
       -0.08010581 -0.029795954 -0.098922215 -0.026740383
0002e0 bb 2e 19 bd 84 dc 14 bd 00 c7 bc bd 91 77 89 bd
       -0.03739808 -0.036343113 -0.09217644 -0.067122586
0002f0 66 87 0e be 42 58 fc 3b ee 2b 3a 3b a3 04 f4 3c
       -0.13918838 0.007700951 0.0028407532 0.029787367
000300 f6 e4 83 3d 39 bf 22 3c 20 25 f7 3c b4 bb a3 3d
       0.06440155 0.009933286 0.03016907 0.07994786
000310 c3 61 4b 3d c8 94 90 3d 0c 39 12 bb 07 ad ee 3b
       0.04965378 0.07059628 -0.0022311835 0.00728381
000320 33 bb b2 3c 99 ee 0a 3d 67 8c 86 bc e6 f1 67 3c
       0.02181778 0.03391895 -0.01642437 0.014156794
000330 4c 51 47 3d 7b 77 a2 3c 9c c0 1e 3d f5 67 bc 3c
       0.048661515 0.019832363 0.038757905 0.02299879
000340 9e 30 93 3c d5 34 13 3d 84 8b 4f 3d ed 22 2c 39
       0.017967518 0.035939056 0.05067016 0.00016416209
000350 e3 43 f8 3c 69 1a 61 3d e5 61 31 3d e4 9f 32 3d
       0.030305808 0.054956827 0.04330625 0.043609515
000360 3e fd 9f bb 0b b8 c8 3b 37 46 5f 3d bc 57 46 3d
       -0.0048824837 0.0061254553 0.05451032 0.048423514
000370 bc e2 9c bc e7 db 39 bc ea 93 25 3d 58 52 f3 bc
       -0.019151084 -0.011343933 0.040424265 -0.02970235
000380 cd 9e 12 bd 97 03 90 bb 32 3d e0 3b a9 1e 5d 3d
       -0.035795975 -0.004394959 0.0068432325 0.053984318
000390 94 99 1a 3d ab 2e f1 bc 62 e1 81 bc a8 77 0e 3d
       0.03774412 -0.029441198 -0.015854541 0.03478208
0003a0 9f af 09 bd 4e 5b 1b bd bf fb 75 3b 01 fb ca 3c
       -0.03361475 -0.03792887 0.0037534086 0.024777891
0003b0 49 83 a0 3d 14 13 45 3d 3d 14 04 bc be 18 18 3c
       0.07837541 0.048113897 -0.008061466 0.009283243
0003c0 d7 4a 35 3d 8d de cc bc ad 37 b9 bc 32 1b c0 bd
       0.044260826 -0.025008464 -0.022609556 -0.09380187
0003d0 f6 1b 83 bd ca 25 84 bd 08 66 df bd d5 b2 4c bd
       -0.064018175 -0.0645252 -0.10908133 -0.049975235
0003e0 04 ae 94 bd df 6e b5 bd 14 0c a1 bd 85 e7 e2 bd
       -0.07259753 -0.088590376 -0.07863632 -0.11079315
0003f0 a4 34 ad bd cb c9 1b bd 20 28 28 bd 5c 51 bd bd
       -0.08457306 -0.03803424 -0.04105389 -0.09244034

bias f4 [64]
000000 f8 36 2d 37 5d 3a 38 35 ee 38 33 35 3d 9a e6 37
       1.0324402e-05 6.863027e-07 6.676554e-07 2.748996e-05
000010 ac 87 34 b7 53 53 1a 37 c4 ed b6 37 6b 89 10 38
       -1.0760425e-05 9.198516e-06 2.1806809e-05 3.4460256e-05
000020 02 68 2e b8 f3 7e ee 37 26 6b 3d b8 86 5e a1 34
       -4.1581698e-05 2.8430926e-05 -4.51609e-05 3.0057362e-07
000030 b6 61 3d 38 fd 6b 3e 37 53 92 ad 35 87 d2 e3 b7
       4.5152112e-05 1.13500255e-05 1.293209e-06 -2.7158543e-05
000040 1d 5a 9b b7 b3 2f 69 b7 ab c8 e3 37 28 49 e7 b7
       -1.8519402e-05 -1.3898988e-05 2.7153952e-05 -2.7571412e-05
000050 df 4f 9d 37 56 41 8a b8 f3 1d 70 b8 72 d0 81 37
       1.8753051e-05 -6.5925225e-05 -5.724835e-05 1.5475063e-05
000060 d4 e9 06 b8 5c b5 27 38 9c 93 8c 37 29 1e 30 b6
       -3.216586e-05 3.9984807e-05 1.6758037e-05 -2.62436e-06
000070 c9 11 a5 36 1c e1 e6 36 f9 82 0e b8 31 7c 2c 38
       4.9194537e-06 6.8807403e-06 -3.3977416e-05 4.1123658e-05
000080 c6 f9 80 b8 23 38 65 37 be de 12 38 47 70 bc 38
       -6.1500396e-05 1.3662534e-05 3.5016557e-05 8.985452e-05
000090 92 ab 14 b8 f0 02 a5 b5 b4 a5 61 b7 4e 1b 36 38
       -3.5445737e-05 -1.2294313e-06 -1.3449626e-05 4.341761e-05
0000a0 2e f1 cb 35 4f 88 80 b6 a8 b1 bd 37 55 99 4f b8
       1.5194871e-06 -3.8305657e-06 2.2613283e-05 -4.9495447e-05
0000b0 5f 8c 30 38 98 73 67 36 6b 8f 72 38 54 28 81 38
       4.20924e-05 3.4488967e-06 5.7830865e-05 6.158711e-05
0000c0 ee d8 83 b8 d2 bb 1d b8 95 fe 00 38 ce 48 df 37
       -6.286973e-05 -3.760664e-05 3.0754676e-05 2.6617574e-05
0000d0 0b 17 c8 b7 d0 d7 b5 37 7d 06 ab b7 06 c3 5c b8
       -2.3852588e-05 2.1677377e-05 -2.038781e-05 -5.2633717e-05
0000e0 9c 5f f2 37 2c e9 7d b6 24 90 90 37 c3 f1 ef b4
       2.889317e-05 -3.7835662e-06 1.7233258e-05 -4.4693124e-07
0000f0 13 17 11 37 de 62 59 b6 f6 d5 03 37 11 16 1e 38
       8.648046e-06 -3.2393068e-06 7.858025e-06 3.7690686e-05

weight f4 [64]
000000 2b 28 0c 40 a3 1e 14 40 18 26 1a 40 70 81 f5 3f
       2.1899517 2.31437 2.408575 1.9180126
000010 c9 e2 fb 3f 7e ef 0b 40 e3 ee 19 40 52 3d 08 40
       1.9678584 2.1864924 2.4052055 2.1287427
000020 53 91 04 40 0d f7 09 40 6b 0d 14 40 ef 09 0c 40
       2.07137 2.1557038 2.313319 2.1881063
000030 7b 27 fa 3f 93 fb ef 3f 84 8f 02 40 f3 1c 04 40
       1.9543298 1.8748649 2.0400095 2.064267
000040 75 05 16 40 f0 67 ff 3f 52 0b ea 3f c6 63 00 40
       2.344083 1.9953594 1.8284705 2.0060897
000050 de cf 06 40 6c eb 1e 40 37 0c 12 40 74 7a 07 40
       2.1064372 2.483119 2.2819955 2.116849
000060 52 b9 2b 40 aa f0 01 40 a1 56 07 40 47 3e 07 40
       2.683186 2.030314 2.1146624 2.113176
000070 be 72 fc 3f 04 b6 29 40 77 3f 01 40 95 e7 21 40
       1.9722517 2.6517344 2.0194986 2.5297596
000080 4b 37 27 40 ce 62 15 40 b7 54 08 40 51 39 22 40
       2.6127498 2.3341556 2.1301706 2.5347483
000090 0f 78 06 40 11 2e 12 40 a7 7e fc 3f 63 a2 18 40
       2.1010778 2.2840617 1.9726151 2.3849113
0000a0 1d 9d 10 40 25 45 19 40 db 14 06 40 08 3b 01 40
       2.2595894 2.3948452 2.095023 2.019228
0000b0 ea 04 04 40 85 7c 06 40 5c f4 01 40 f6 0d 16 40
       2.0628 2.10135 2.0305395 2.344602
0000c0 59 b2 22 40 bf 64 36 40 08 45 0e 40 d9 43 08 40
       2.5421355 2.849899 2.2229633 2.129141
0000d0 c0 5b 04 40 5e 37 1b 40 0f 02 19 40 0d d7 01 40
       2.0681 2.4252543 2.3907506 2.0287507
0000e0 f6 5c 08 40 98 3e 11 40 8e e0 1f 40 ab dc 04 40
       2.130674 2.2694454 2.4980807 2.0759685
0000f0 27 13 10 40 09 23 12 40 c9 b1 06 40 ef 5f 04 40
       2.251169 2.2833884 2.1046011 2.0683553

bias f4 [64]
000000 8c 2b 99 3e 25 1a 25 3e 3d 74 20 3e a6 ce cb 3d
       0.29916036 0.16123255 0.15669341 0.099515244
000010 d3 46 7a 3e 28 7d 65 3e b2 f0 88 3e 67 0d de 3d
       0.2444108 0.22411025 0.26746136 0.108424
000020 4e dd 05 3f 1f 29 c5 3e e9 28 89 3e 6a 5a 64 3e
       0.5229081 0.38507935 0.26789024 0.22300115
000030 cf 99 e9 3d 0f 39 de 3d 91 7b 6d 3e 0e bc 45 3e
       0.1140629 0.10850727 0.23191668 0.19310018
000040 b9 44 21 3f a0 b7 3d 3e cd 7e 2d 3e 63 51 37 3e
       0.6299549 0.18527079 0.16942902 0.1790214
000050 7c ee 60 3e 82 b8 30 3f 83 b4 c0 3e 87 31 41 3e
       0.21965975 0.69031537 0.3763772 0.1886655
000060 cd 1e 11 3f 97 71 71 3e e3 e1 60 3e 2f c3 3e 3e
       0.56687623 0.23578487 0.21961169 0.18629144
000070 44 32 57 3e 8a 0b 23 3f 49 cd 3f 3e 7d b7 15 3f
       0.21015269 0.6368948 0.18730654 0.58483106
000080 08 7e f7 3e a8 1a b6 3e 47 08 6c 3e a9 46 1f 3f
       0.48338342 0.35567212 0.23050033 0.62217194
000090 99 b5 66 3e 53 9b 83 3e 0e 7d 52 3e 16 e4 12 3f
       0.22530212 0.2570444 0.20555517 0.5737928
0000a0 d0 f0 d0 3e 07 8c 06 3e 00 bd 17 3e bb 64 4e 3e
       0.40808725 0.13139354 0.14818192 0.20155613
0000b0 c1 a9 09 3e a0 c3 5a 3e 62 01 6e 3e a4 cf f8 3e
       0.13443662 0.21363688 0.23242715 0.48595917
0000c0 98 fa 22 3f f0 5f 2f 3f e2 3a 85 3e 77 da 38 3e
       0.63663626 0.68505764 0.26021487 0.18052088
0000d0 0c 0d 46 3e 33 5e 1e 3f 14 30 10 3f 6f 3b 9e 3e
       0.19340914 0.61862487 0.5632336 0.3090472
0000e0 1a 25 7d 3e 72 a5 1e 3f 7c 21 1a 3f e4 96 38 3e
       0.24721184 0.619712 0.60207343 0.1802631
0000f0 61 00 75 3e 1d 2a 0a 3e a0 47 7c 3e 0e fc 23 3e
       0.23925926 0.13492627 0.24636698 0.1601412

running_mean f4 [64]
000000 d7 c3 83 bf 39 8d 34 bf 69 7d 3e 3f d1 f5 25 bf
       -1.029414 -0.7052799 0.7441011 -0.6482821
000010 fc d6 19 bf fd 16 3c bf 14 d0 7b bf 4a c9 b8 be
       -0.60093665 -0.7347258 -0.9836438 -0.3609107
000020 d5 99 8d 3e 21 64 8d 3f 9d 33 63 be ab 0f 61 bf
       0.27656427 1.1046182 -0.22187658 -0.8791453
000030 81 15 a4 bf 2d 9c c4 be 5c da 28 bf 3e 12 8a bf
       -1.2819062 -0.38400403 -0.6595819 -1.0786817
000040 f0 35 87 3f f0 40 80 bf 0c 95 1b bf da 89 81 bf
       1.0563335 -1.0019817 -0.607743 -1.0120194
000050 ff 62 9a bf 46 82 11 3f 4f 40 1b 3f 8a a9 7c bf
       -1.2061461 0.56839406 0.60645 -0.98696196
000060 43 72 89 3e 68 cc e5 be 38 a2 82 bf 82 32 dc be
       0.26844987 -0.44882512 -1.0205755 -0.43007284
000070 38 16 8e bf f6 4d 45 3f f6 79 97 bf 39 56 fe 3e
       -1.1100531 0.77072084 -1.1834095 0.49675158
000080 1a 7d 3b 3d 8f 55 c3 be 8a 47 84 bf f1 c6 0f 3f
       0.045773603 -0.38151214 -1.0334332 0.56162935
000090 bb 2b 9b bf 6e 1f 8b bf 68 75 13 bf 8e 39 2f 3f
       -1.212272 -1.0868967 -0.5760102 0.68447196
0000a0 5c 24 94 3f e3 b6 03 3f 5f 16 9d bf ef a6 45 bf
       1.1573596 0.5145094 -1.2272452 -0.77207845
0000b0 2c 98 a8 be fd 64 b5 bf 82 d5 72 bf 54 c6 e8 3e
       -0.32928598 -1.4171444 -0.9485704 0.45463812
0000c0 14 35 f7 3e 44 dc 9f 3f 4e d3 b4 bf 65 3d a0 bf
       0.48282683 1.2489095 -1.4126985 -1.2518736
0000d0 e6 20 79 bf e1 1d 45 3f e1 0f 42 3f 29 15 1e bf
       -0.97315824 0.76998717 0.7580548 -0.6175104
0000e0 89 e1 88 bf 45 fb 1b 3f d7 ff 6b 3f 86 df 26 bf
       -1.0693828 0.6093028 0.92187256 -0.6518482
0000f0 05 2a 96 bf 80 af dc 3e ca 60 6f bf a9 cb a7 bf
       -1.1731573 0.43102646 -0.93507063 -1.3109027

running_var f4 [64]
000000 c9 81 50 3f d2 a9 87 3f a6 e3 92 3f 53 f1 4f 3f
       0.81448036 1.05987 1.1475723 0.81227607
000010 46 b0 5b 3f 47 29 2b 3f c8 e0 86 3f 68 ac 1e 3f
       0.85815847 0.6685986 1.0537348 0.6198182
000020 c1 c2 4a 3f 87 5b 36 3f d1 d3 9b 3f 77 5c 6c 3f
       0.7920342 0.7123341 1.2174016 0.9232859
000030 98 d8 1e 3f 84 e4 0f 3f 9c be 2f 3f 67 6b 00 3f
       0.62049246 0.5620806 0.6865022 0.5016388
000040 56 f6 18 3f f1 15 0c 3f c6 84 1f 3f 53 06 17 3f
       0.5975088 0.5472098 0.6231197 0.58994025
000050 5e e1 12 3f b4 ec 04 3f 0e c4 80 3f 69 ae 5d 3f
       0.57375133 0.5192368 1.0059831 0.86594254
000060 5b 7a 46 3f a3 7b 24 3f 7d 23 26 3f 21 a4 3d 3f
       0.7753045 0.64251155 0.648979 0.74078566
000070 8f 76 05 3f 05 c3 6b 3f 80 47 cd 3e e0 74 66 3f
       0.5213403 0.9209445 0.40093613 0.9002209
000080 0e b3 71 3f fe 58 84 3f d6 da 31 3f 5b b5 46 3f
       0.9441384 1.0339658 0.6947454 0.77620476
000090 72 41 14 3f eb d7 6e 3f 90 07 0e 3f 2f 58 3a 3f
       0.5791236 0.93298215 0.5548029 0.7279081
0000a0 43 49 4f 3f 21 d3 85 3f e9 76 44 3f 4c 6a 55 3f
       0.80971164 1.0455056 0.7674394 0.8336532
0000b0 e3 a7 5b 3f 76 6c 09 3f 1c 22 0f 3f 20 2f 5f 3f
       0.8580305 0.53681123 0.5591142 0.8718128
0000c0 5f bd 80 3f 65 ae aa 3f 3f ea 17 3f 2c d4 04 3f
       1.0057791 1.3334471 0.59341806 0.5188625
0000d0 5c bf 12 3f 60 db 2d 3f 8d b9 2a 3f 43 95 0a 3f
       0.5732324 0.67912865 0.6668938 0.54134005
0000e0 a1 15 48 3f 3a 25 54 3f ee 70 2c 3f ae 75 ef 3e
       0.78158003 0.82869303 0.6735982 0.4676947
0000f0 b0 7c 1f 3f 43 e8 76 3f e2 a5 0e 3f f8 b9 37 3f
       0.62299633 0.96448153 0.5572187 0.7176814
